SoreUI/files/data/omega_py.tflite (tflite, 206964 bytes, 9 tensors)

arith.constant f4 [1, 32]
0	0x3ddfa87a	0.10920806
1	0x3e3869af	0.18009065
2	0x3d6e8895	0.058235724
3	0x3eb0a4da	0.34500772
4	0x3e1ce4ce	0.15321657
5	0xbebac19e	-0.36475843
6	0xbc14a1d6	-0.009071788
7	0x3e090399	0.13380279
8	0x3db15a6a	0.08659823
9	0x3ddf5d97	0.10906523
10	0x3d1fbe7d	0.039000023
11	0xbeb82cd8	-0.35971713
12	0xbea8b9a0	-0.3295412
13	0xbea5d994	-0.3239256
14	0xbd68823a	-0.05676482
15	0xbd842a50	-0.06453383
16	0x3da6fb33	0.08153381
17	0x3e028950	0.12747693
18	0xbdf11cf6	-0.11773102
19	0x3e3281e0	0.17432356
20	0x3d99b692	0.07505526
21	0xbea7c543	-0.32767686
22	0x3d488ac8	0.048960477
23	0xbeb71a74	-0.3576237
24	0x3c28895e	0.010286657
25	0x3de8d71f	0.11369156
26	0xbeb12999	-0.3460205
27	0x3e6dcabc	0.23221868
28	0xbc0537cb	-0.008130978
29	0x3e464da9	0.19365562
30	0xbeaf807b	-0.3427771
31	0x3e903802	0.2816773

arith.constant1 f4 [32, 32]
0	0xbe02b97c	-0.12766069
1	0x3e13c7c5	0.14431675
2	0xbe060da4	-0.13091141
3	0x3d857827	0.06517058
4	0xbe32882a	-0.17434755
5	0xbd03e1cc	-0.03219776
6	0xbe08c32d	-0.13355704
7	0x3d9a2a43	0.07527592
8	0xbe3a8999	-0.18216552
9	0x3d49f780	0.0493083
10	0x3e38e9fd	0.1805801
11	0xbc574e8b	-0.013141285
12	0xbe15dd36	-0.14635167
13	0x3e3fd8fa	0.18735114
14	0x3e1136fd	0.14181133
15	0x3e1f98cd	0.15585633
16	0xbcec07ef	-0.028812377
17	0xbe13fc17	-0.14451633
18	0x3db85c65	0.09001998
19	0x3d8abccc	0.067742914
20	0x3aa0a5c6	0.0012256436
21	0xbc22092d	-0.009889883
22	0xbdb7ed0e	-0.089807615
23	0x3d5512ad	0.052019764
24	0xbd245215	-0.040117342
25	0xbdd668a7	-0.104691796
26	0x3b1be6c1	0.0023788663
27	0x3d9e1a58	0.077198684
28	0xbd2c5477	-0.04207274
29	0xbbe5d7ad	-0.007014236
30	0x3c60a506	0.01371122
31	0xbd5434a2	-0.051808007
32	0xbe092f35	-0.13396914
33	0xbc9048f6	-0.017612915
34	0x3cf9bb53	0.030484831
35	0xbc464fe8	-0.012104012
36	0xbd673034	-0.056442454
37	0x3e17d03a	0.14825526
38	0x3ca2ce3d	0.019873733
39	0xbe2e3e54	-0.17015964
40	0x3df4daa4	0.11955765
41	0xbd88a4ec	-0.06672081
42	0x3ce3a8dd	0.027790481
43	0x3d32c29f	0.043642636
44	0x3dac49c9	0.08412511
45	0xbcff50e8	-0.031166509
46	0x3dfa94ec	0.12235436
47	0xbcd810f3	-0.02637527
48	0x3e2cc750	0.16872907
49	0xbd9c30f3	-0.07626524
50	0x3c99727b	0.018731346
51	0x3e07b789	0.13253607
52	0x3df38c2f	0.11891972
53	0x3d780b7a	0.06055782
54	0xbd020157	-0.03173956
55	0xbcfe4a19	-0.031041192
56	0x3e3c8af2	0.18412378
57	0xbce06eca	-0.027396578
58	0x3dc5fa75	0.096669115
59	0x3e32a5b0	0.17446017
60	0xbe027edf	-0.1274371
61	0x3d1a835d	0.037722934
62	0x3df08776	0.11744587
63	0x3beda769	0.007252623
64	0x3dd3d9c9	0.103442736
65	0xbd3f5484	-0.04671146
66	0x3e21616c	0.1575982
67	0xbbf2b209	-0.0074064774
68	0xbd62a619	-0.055334184
69	0xbd5eba7f	-0.054377075
70	0x3e18ef5b	0.14935057
71	0x3e06ad38	0.13152015
72	0x3dc1642b	0.09442934
73	0xbe02ce9a	-0.12774125
74	0x3df8c59d	0.12147067
75	0x3daf2692	0.085522786
76	0x3de29d5a	0.11065169
77	0xbe6d8465	-0.23195036
78	0x3d3e3d83	0.04644538
79	0xbc955e2d	-0.018233383
80	0x3d2c2ea1	0.042036656
81	0x3b920964	0.004456686
82	0x3c82120f	0.015877752
83	0xbd8ed386	-0.06973939
84	0xbdab7025	-0.08370999
85	0x3e003821	0.12521411
86	0xbd0ccddb	-0.034376007
87	0xbd7ffd5f	-0.062497493
88	0xbcbcb874	-0.023037173
89	0xbe2a1fcb	-0.1661369
90	0x3e4379e7	0.19089471
91	0x3d663d1b	0.05621062
92	0x3e08e150	0.133672
93	0xbde67613	-0.112529896
94	0xbc9d46f9	-0.019198881
95	0xbdee415f	-0.11633562
96	0xbe064f75	-0.13116248
97	0xbe1c2491	-0.15248324
98	0x3dafe0cd	0.08587799
99	0x3dbbd30e	0.09171115
100	0xbe177c5f	-0.14793538
101	0x3deef8ee	0.11668573
102	0xbdcc3094	-0.09970203
103	0xbe15a949	-0.14615358
104	0xbe3d3115	-0.18475755
105	0xbde65a8d	-0.1124774
106	0x3e85f524	0.2616359
107	0xbd104f1b	-0.03523169
108	0xbd8de0db	-0.069276534
109	0x3e79c9e9	0.24393429
110	0xbccdad23	-0.025106972
111	0xbde0a222	-0.109684244
112	0x3e25e995	0.16202386
113	0x3dc84958	0.09779614
114	0xbda8d739	-0.082441755
115	0xbca5682a	-0.02019127
116	0x3e044b45	0.12919338
117	0x3d71b204	0.05900766
118	0xbd6c888f	-0.05774742
119	0x3dc717fc	0.097213715
120	0xbdfd9ca5	-0.12383393
121	0xbdb131e5	-0.08652095
122	0x3d702a1f	0.05863392
123	0x3e76077b	0.24026291
124	0x3bb85035	0.005624796
125	0x3e974a89	0.29549053
126	0x3c358dfb	0.011081214
127	0xbe12f81c	-0.14352459
128	0xbdfce37e	-0.12348078
129	0xbce13fc5	-0.027496228
130	0xbe1eaa79	-0.15494718
131	0xbcde56c6	-0.027140986
132	0x3e23e0f4	0.16003782
133	0xbd5dd5f4	-0.05415912
134	0x3d045614	0.032308653
135	0x3ca9f054	0.02074448
136	0xbccae381	-0.024766685
137	0xbbb1046d	-0.005402139
138	0xbb354b80	-0.002766341
139	0x3de38e2c	0.111111015
140	0xbe012863	-0.12613063
141	0x3db028a3	0.08601501
142	0x3cf07928	0.029354647
143	0xbd40d7fa	-0.04708097
144	0x3e521307	0.20515071
145	0x3d8c6672	0.068554774
146	0x3d37934e	0.044818215
147	0xbdd27d5d	-0.102778174
148	0xbdbf49f2	-0.09340276
149	0xbcb1fbdb	-0.02172654
150	0x3e1d5dc9	0.15367807
151	0xbd29cf28	-0.041457325
152	0x3d613256	0.054979645
153	0x3d5d78b1	0.05407018
154	0x3dc4cc79	0.096093126
155	0x3ce0d656	0.027445953
156	0xbe520fa4	-0.20513779
157	0x3ddb3421	0.10703302
158	0x3dd9d0c9	0.10635526
159	0xbda91415	-0.082557835
160	0xbd9cda89	-0.0765887
161	0x3c92e536	0.017931562
162	0xbdf4191d	-0.119188525
163	0x3b2be4b6	0.0026228852
164	0xbccd8b03	-0.0250907
165	0x3e119061	0.14215232
166	0xba7c7d4e	-0.0009631709
167	0xbd7e0a59	-0.062021587
168	0x3d43eb00	0.047831535
169	0x3e336737	0.17519842
170	0x3b01ffef	0.0019836386
171	0xbd81c2ba	-0.06335969
172	0x3e23eb65	0.16007765
173	0x3c60359e	0.013684658
174	0xbc55fd61	-0.0130608985
175	0xbe06aa14	-0.13150817
176	0xbdeea70b	-0.11652955
177	0xbd17882c	-0.036995098
178	0xbde68eb7	-0.112576894
179	0xbe0d9210	-0.1382525
180	0xbe321fbf	-0.17394923
181	0xbe742199	-0.23840941
182	0xbd92aebc	-0.07162234
183	0x3e2315a0	0.15926218
184	0x3df39c18	0.11895007
185	0x3dc51193	0.09622493
186	0xbe2c6852	-0.1683667
187	0xbc9188ac	-0.017765366
188	0xbda841fc	-0.082157105
189	0xbdad506a	-0.084626034
190	0x3dcb5d43	0.09929898
191	0x3d77481e	0.06037151
192	0x3d8b9ef1	0.06817425
193	0xbde81aad	-0.11333213
194	0xbced6fef	-0.028984038
195	0xbddf1d51	-0.108942635
196	0xbdb1ceb7	-0.08682006
197	0xbe46e1f3	-0.1942213
198	0xbddc472e	-0.10755764
199	0x3dc88359	0.097906776
200	0xbe0136fd	-0.12618633
201	0x3ce72b0c	0.028218769
202	0x3e1c7e25	0.15282495
203	0x3e34d349	0.17658724
204	0x3e2841aa	0.16431299
205	0xbe6b8946	-0.23001584
206	0xbd95b6c3	-0.0731025
207	0xbdcf1998	-0.101123035
208	0x3e0ae830	0.13565135
209	0xbdab2549	-0.08356721
210	0xbdbdd367	-0.092688374
211	0x3db36f18	0.08761424
212	0xbd263e99	-0.04058704
213	0xbd0619c1	-0.032739405
214	0xba4ec859	-0.00078881305
215	0x3e19d46d	0.1502244
216	0xbd96ec94	-0.073693424
217	0x3c77f548	0.015134163
218	0xbbde64de	-0.0067869266
219	0x3e1baff6	0.15203843
220	0x3e111cd4	0.14171153
221	0x3b2fdc87	0.0026834325
222	0x3df167d8	0.11787385
223	0xbd3d807a	-0.046265103
224	0x3d478091	0.048706595
225	0xbc80f757	-0.01574294
226	0x3dc22a95	0.09480778
227	0xbd67ebcb	-0.056621354
228	0x3e0fdd7b	0.14049332
229	0xbc29c733	-0.010362434
230	0xbc8256a9	-0.015910463
231	0x3d198424	0.037479535
232	0x3cef3371	0.029199334
233	0x3e107187	0.14105807
234	0x3e406400	0.18788147
235	0x3d018c36	0.031627856
236	0x3e0f1dfa	0.13976279
237	0x3e3a66e4	0.18203312
238	0x3e1b552b	0.15169208
239	0x3d866586	0.06562333
240	0x3dfc32a4	0.123143464
241	0xbc073543	-0.008252445
242	0x3d7188ae	0.05896824
243	0xbe0b55c2	-0.13606933
244	0xbdfb42f3	-0.12268629
245	0x3d51d08b	0.051224273
246	0xbdb75499	-0.089516826
247	0xbe35c9aa	-0.1775271
248	0x3de714d5	0.1128327
249	0xbd7f715c	-0.062363967
250	0xbe19507a	-0.14972106
251	0x3c68940c	0.014195453
252	0xbcfdeb7f	-0.030996082
253	0x3d48b1f2	0.048997827
254	0x3d5edf74	0.05441232
255	0xbdc50204	-0.09619525

arith.constant2 f4 [32, 1536]
0	0x3bb92cdd	0.0056511
1	0xbba99299	-0.0051749465
2	0x3cbe6a2d	0.023243988
3	0xba5912f1	-0.00082807156
4	0xbcd832e0	-0.026391447
5	0x3c97e1ed	0.018540347
6	0xbc490133	-0.012268352
7	0x3c462dc1	0.0120958695
8	0x3cbe0a15	0.023198167
9	0x3b486655	0.0030578573
10	0x3c405a17	0.011740229
11	0xbb2c3cd8	-0.0026281383
12	0x3cbe83bb	0.023256173
13	0x3b8008f8	0.003907319
14	0xbb7cb0a5	-0.0038557437
15	0x3b5b17c5	0.0033430916
16	0x3c9bcb46	0.019017827
17	0x3bffdcbe	0.007808297
18	0xbcd22deb	-0.025656661
19	0xbcc6736a	-0.024224956
20	0x3cb96985	0.022633323
21	0xbc68153b	-0.014165218
22	0xbc320e20	-0.0108676255
23	0xbcc2a39e	-0.02375966
24	0xbc6cf3ca	-0.014462421
25	0x3c03eefe	0.008052586
26	0xbc852675	-0.01625369
27	0x3ace7909	0.0015752624
28	0xbae70df8	-0.0017628064
29	0x3b134d55	0.0022476513
30	0xbb3daec0	-0.002894327
31	0xbc0739bd	-0.008253512
32	0xbc5f7ea1	-0.0136410305
33	0x3c82ac62	0.01595134
34	0x3c6d4f21	0.014484198
35	0x3c2c216f	0.010506018
36	0x3c82e9bd	0.015980596
37	0xbb910a48	-0.0044262744
38	0xbc9171e0	-0.017754495
39	0x3c69fb17	0.014281056
40	0xbc3c964d	-0.011510444
41	0x3c2a422a	0.010391751
42	0x3cb896c0	0.02253282
43	0xbbb03aeb	-0.0053781173
44	0xbb7a4582	-0.0038188403
45	0x3b517967	0.003196323
46	0xbbe6526e	-0.0070288694
47	0xbc24b0e9	-0.010051944
48	0xbb9c70b2	-0.0047741765
49	0xbcd6f6e8	-0.026240781
50	0x3c31d5aa	0.010854164
51	0x3acda46e	0.0015689263
52	0x3c2b6625	0.010461365
53	0xbcc5f8eb	-0.024166545
54	0xbc89f182	-0.016838793
55	0xbbf08db8	-0.007341113
56	0xbc360c62	-0.011111351
57	0xbc314696	-0.010820052
58	0x3ba6698b	0.0050784997
59	0x3c69f531	0.01427965
60	0xbd0971a1	-0.03355563
61	0xbbeaed19	-0.0071693775
62	0xbc216b93	-0.009852308
63	0xbcd159fd	-0.025555605
64	0xbbf40806	-0.0074472455
65	0xbc19d8c5	-0.009390061
66	0x3beca74b	0.0072220913
67	0x3c54c2da	0.012985909
68	0xbbda92b5	-0.006670321
69	0xb9f66185	-0.00046993434
70	0x3cbbc039	0.022918807
71	0x3c69a5c4	0.014260713
72	0xbcaff99f	-0.021481333
73	0xbc3c0177	-0.011474959
74	0xbbc2ece3	-0.0059486493
75	0xbc4002e8	-0.011719443
76	0x3c638c3b	0.013888414
77	0x3ccab7dd	0.024745876
78	0xbb76b336	-0.003764344
79	0xbc639af8	-0.013891928
80	0xba5b8de8	-0.00083753327
81	0xbbcf7028	-0.0063305087
82	0x3cb9b791	0.02267054
83	0xbc79991f	-0.015234261
84	0x3cb3d748	0.02195324
85	0x3c4ec329	0.012619772
86	0x3c3d8f66	0.011569833
87	0x3a3c3249	0.0007179124
88	0x3cb44410	0.022005111
89	0x3c58f2d7	0.013241491
90	0x3ca6b038	0.0203477
91	0x3b208a8d	0.0024496645
92	0x3c39a269	0.0113302255
93	0xbc91397e	-0.01772761
94	0xbc0612a9	-0.00818316
95	0xbc5123b4	-0.01276486
96	0xbca1b31a	-0.019738723
97	0x3c12a4a7	0.008950389
98	0x3c458ad5	0.012057026
99	0xbc00d3d2	-0.007863002
100	0xbb8ce3f6	-0.004299636
101	0x3aa5390d	0.0012605503
102	0xbc001e6d	-0.007819754
103	0x3b9bb767	0.004752088
104	0x3d1cebb6	0.03831073
105	0xbc36d7c6	-0.011159843
106	0xbc482d6b	-0.01221786
107	0x3cd43771	0.025905343
108	0x3c0d4538	0.00862246
109	0xbbb365cb	-0.005474781
110	0xbc35fca2	-0.011107596
111	0xba80c63c	-0.0009824703
112	0xbbb653c7	-0.0055641863
113	0xbc7130b8	-0.014721088
114	0xbc453a3b	-0.012037809
115	0xbc89b266	-0.0168087
116	0x3bf13ba4	0.007361846
117	0x3ce26bee	0.027639356
118	0x3c2baa6b	0.0104776425
119	0xbbb56f95	-0.0055369833
120	0xbccd9524	-0.02509553
121	0x3bf27cf4	0.0074001495
122	0x3aaf3ad2	0.001336897
123	0x3bc79cdf	0.0060916985
124	0x3c7f6a4f	0.015589311
125	0x3d003559	0.031300876
126	0xbbd6fd86	-0.006560984
127	0x3c6516be	0.013982473
128	0xbc8360e8	-0.01603742
129	0xbb709da8	-0.0036715064
130	0x3b54f5cf	0.0032495146
131	0x3c0b72f7	0.0085112965
132	0x3c1e4561	0.009660096
133	0xbc18de20	-0.0093303025
134	0xbc84fea2	-0.0162347
135	0xbc1d6a96	-0.009607932
136	0x3a7fecb3	0.0009762749
137	0x3be5caff	0.0070127244
138	0xbc78fe65	-0.015197371
139	0xbcaa94df	-0.02082294
140	0xbc8f5c6e	-0.017500129
141	0xbbbf0c3b	-0.0058303154
142	0xbc25173b	-0.010076339
143	0xbc4cff02	-0.0125119705
144	0xbaec9d8b	-0.0018052323
145	0xbc40eec0	-0.011775672
146	0x3be893ba	0.0070976885
147	0xbca76eab	-0.020438513
148	0x3c3f2148	0.01166565
149	0x3b8c1bf3	0.0042757927
150	0xbb8a81f4	-0.0042269174
151	0xbb43407c	-0.0029793074
152	0x3c7943e7	0.015213943
153	0xbaf6f231	-0.0018840489
154	0x3be5c175	0.0070115873
155	0xbc4215f7	-0.011846057
156	0x3bf7f00b	0.007566457
157	0xbd08e5e0	-0.03342235
158	0x3b9f0b92	0.004853674
159	0x3c872f25	0.016501972
160	0x3c6d63f2	0.014489161
161	0x3c8ed903	0.017437464
162	0x3cc20a74	0.023686625
163	0x3a7b69c4	0.00095906504
164	0xbc44e277	-0.012016884
165	0x3c46eb52	0.012141066
166	0xbbfa5834	-0.007639909
167	0x3c629d44	0.01383144
168	0xbb9909c3	-0.004670353
169	0xbc00c14a	-0.007858584
170	0xbb8caa48	-0.00429276
171	0xbc5b4892	-0.013384001
172	0xbaab0951	-0.0013049041
173	0x3c94243d	0.018083686
174	0xbcc08683	-0.02350164
175	0x3a033b3e	0.0005006081
176	0xbb5d0bf5	-0.003372905
177	0xbc1eff0e	-0.009704364
178	0x3bc7c55e	0.006096526
179	0xbc7e28af	-0.015512629
180	0x3c49c2d6	0.012314519
181	0x3c8cf088	0.017204538
182	0x3bee307f	0.007268965
183	0x3c872598	0.016497418
184	0x3c009ee6	0.007850384
185	0xbc5983c9	-0.013276049
186	0xbc07ca6a	-0.008288005
187	0x3c827e8f	0.015929488
188	0x3ad0e672	0.0015937819
189	0xbce19fd1	-0.027542027
190	0x3ca2d944	0.019878991
191	0x3be4bd43	0.0069805696
192	0xbd06341d	-0.032764543
193	0x3bde19da	0.006777984
194	0x3ccf0062	0.025268737
195	0xbc5e348a	-0.013562331
196	0xbc9cd770	-0.019145697
197	0x3c6c9fa1	0.014442355
198	0x3c26c691	0.010179178
199	0xbc51aabf	-0.012797057
200	0x3c9a28c4	0.018818267
201	0xbc02a3a8	-0.007973589
202	0xbc0ff9c2	-0.008787574
203	0x3c75c8ea	0.015001515
204	0xbc5791b1	-0.013157294
205	0x3bc4d242	0.00600651
206	0xbc8c8698	-0.017154023
207	0xbc42004d	-0.011840892
208	0xbc1e19be	-0.009649692
209	0x3c12819e	0.008942036
210	0x3c55e3fa	0.013054842
211	0xbc42112f	-0.011844917
212	0x3b52853c	0.003212287
213	0x3b798304	0.0038072476
214	0x3b6b4535	0.0035899405
215	0xbc71e269	-0.014763453
216	0xbab6104c	-0.0013890355
217	0x3c524ab4	0.012835193
218	0xbbf3f490	-0.0074449256
219	0xbbe8d093	-0.007104942
220	0x3c49a58f	0.012307539
221	0x3b909ece	0.0044134622
222	0xbc2f282d	-0.010690731
223	0xbc03b00f	-0.008037581
224	0xbb529ca3	-0.003213682
225	0x3bd97488	0.006636206
226	0x3bed2ff0	0.0072383806
227	0xbad7c4c1	-0.0016461835
228	0x3cdfbc41	0.027311446
229	0x3cb5ac8e	0.022177007
230	0xbc636ad8	-0.013880454
231	0x3c853ba5	0.016263792
232	0xbc86dfe8	-0.016464189
233	0xbcb99d2b	-0.022657951
234	0x3c6bdc59	0.014395797
235	0x3c7c60c3	0.015403929
236	0xbc9711e1	-0.018441143
237	0xbbb4e514	-0.0055204723
238	0xbccda6b3	-0.025103902
239	0x3b1872cf	0.002326179
240	0xbacefac4	-0.0015791287
241	0xbcde21b8	-0.027115688
242	0xbce193ce	-0.0275363
243	0x3c5167eb	0.012781124
244	0x3c8a1b9f	0.016858874
245	0x3b8ec3eb	0.0043568513
246	0xbc4c8fb5	-0.012485434
247	0xbbc03666	-0.00586586
248	0x3c939e58	0.01801984
249	0x3bc36431	0.0059628715
250	0xbca5f565	-0.020258615
251	0x3cc0a273	0.023514962
252	0x3c3c5370	0.011494502
253	0xbc9ab43c	-0.01888477
254	0xbc329c67	-0.010901547
255	0xbc9e5191	-0.019326003

model_8/tf.__operators__.add/AddV2/y f4 [32]
0	0xbc8eba5f	-0.017422853
1	0x3c7d1cbf	0.015448748
2	0xbc9340b7	-0.017975194
3	0xbbd86760	-0.00660412
4	0x3c8fddd4	0.01756183
5	0xbc4a56a0	-0.012349755
6	0xbc88bf4c	-0.01669278
7	0x3cb38bee	0.02191731
8	0xbc010ccd	-0.007876587
9	0xbbee1d22	-0.0072666565
10	0xbc093224	-0.008373771
11	0xbcc952d2	-0.024575625
12	0x3baa356d	0.005194357
13	0xbcae4ee0	-0.021277845
14	0x3c833349	0.016015666
15	0xbbc38b67	-0.005967546
16	0xbb7a2d4a	-0.0038173967
17	0xbb4a00d8	-0.0030823257
18	0xbcc6f478	-0.024286494
19	0xbb829026	-0.003984469
20	0x3c027bc1	0.007964076
21	0xbcbc93da	-0.02301972
22	0xbc12deda	-0.008964265
23	0x3d008d6d	0.031384874
24	0xbca38723	-0.0199619
25	0x3c2b7806	0.010465628
26	0x3c56a989	0.013101944
27	0xbc9acc8f	-0.01889637
28	0xbc498bfa	-0.012301439
29	0xbb4c53f8	-0.003117798
30	0x3c2d8748	0.010591336
31	0xbc5c45fe	-0.013444422

model_8/tf.__operators__.add_1/AddV2/y f4 [32]
0	0xbce7ece1	-0.028311195
1	0xbd80ccaf	-0.0628904
2	0x3d0cbb78	0.03435847
3	0xbdbfe2a6	-0.09369402
4	0xbe2fb40a	-0.17158523
5	0x3e3cd02c	0.18438786
6	0xbe3bd396	-0.18342432
7	0x3e1d69ed	0.15372439
8	0x3c8a72d0	0.01690045
9	0xbde20dca	-0.11037786
10	0xbe19d653	-0.15023164
11	0x3c23f9c8	0.010008283
12	0x3dd17e26	0.10229139
13	0x3d0fe78d	0.035132933
14	0xbd9b1397	-0.07572096
15	0xbe13bd82	-0.1442776
16	0x3e0ddd9b	0.13854067
17	0xbcf75412	-0.030191455
18	0xbdd5a287	-0.1043139
19	0xbbdb56e7	-0.006693709
20	0xbe3090cc	-0.17242736
21	0x3da73eef	0.081663005
22	0xbdc82689	-0.09772975
23	0xbdcfe2da	-0.101506904
24	0xbe162744	-0.14663416
25	0x3e15b3cc	0.14619368
26	0x3d8fe325	0.07025746
27	0x3d8006f4	0.06251326
28	0xbd311874	-0.04323621
29	0x3d1262c3	0.035738718
30	0x3e0efb5d	0.13963075
31	0xbe2053d1	-0.15656973

model_8/tf.math.add_2/Add/y f4 [1, 32]
0	0xbbb5679e	-0.005536034
1	0xbc73a324	-0.014870439
2	0xbc5f9f62	-0.01364884
3	0x3ccc6f98	0.024955556
4	0xbce863f1	-0.028367968
5	0x3d15276f	0.03641456
6	0xbc72fb75	-0.01483046
7	0xbbb227f5	-0.005436892
8	0xbc0d9c23	-0.008643183
9	0x3b7f04f5	0.0038912867
10	0xbb7f2739	-0.003893329
11	0x3c5518a3	0.013006362
12	0xbd1f63d3	-0.03891356
13	0xbc6a9455	-0.014317592
14	0xbc740363	-0.014893386
15	0x3c1bec37	0.009516767
16	0xbbb738db	-0.0055914945
17	0xbbb49319	-0.0055106995
18	0xbbf6995a	-0.007525605
19	0xbc7856bb	-0.015157397
20	0xbc61a5c3	-0.013772431
21	0x3a9eb511	0.0012108405
22	0x3cde2cfd	0.027121061
23	0x3c57d309	0.013172873
24	0xbcadaf07	-0.021201624
25	0x3c6bc009	0.0143890465
26	0x3cf5cf07	0.030005945
27	0x3ce4a232	0.027909372
28	0xbb0ebd8c	-0.002178046
29	0xbbfc332f	-0.0076965312
30	0x3bc8ac54	0.0061240587
31	0xbc834e44	-0.01602853

model_8/tf.math.add_5/Add/y f4 [1, 32]
0	0x3d3c3b11	0.045954768
1	0x3d2c91cc	0.04213123
2	0x3d77485a	0.060371734
3	0x3e042975	0.1290644
4	0x3d3d816a	0.046265997
5	0x3e82bddc	0.25535476
6	0x3c2ce38e	0.0105523
7	0x3d0cc851	0.034370724
8	0x3c9fa5fb	0.019488325
9	0x3df624d9	0.12018747
10	0x3d5d7d4e	0.054074578
11	0x3e852f56	0.26012677
12	0x3e9c52b0	0.30531836
13	0x3e853db9	0.26023653
14	0x3af72812	0.0018856546
15	0xbc69e665	-0.014276122
16	0x3cc969c0	0.024586558
17	0x3d2297a6	0.039695404
18	0xbc811dd1	-0.015761288
19	0x3cc39cf0	0.023878545
20	0x3c98cbdd	0.018651897
21	0x3e96e470	0.2947116
22	0x3cb945ba	0.022616256
23	0x3e88b361	0.26699355
24	0xbb89a5f2	-0.0042006904
25	0x3d9d0198	0.076663196
26	0x3e8a2f52	0.26989228
27	0x3da9ed88	0.082972586
28	0xbdeda755	-0.11604182
29	0x3ddbb7f8	0.10728449
30	0x3e9e9393	0.30971965
31	0x3d8384a1	0.06421781

model_8/tf.math.multiply_10/Mul/y f4 [1, 32]
0	0x3f7653e0	0.96221733
1	0x3f7f22c1	0.99662405
2	0x3f7f7327	0.99785084
3	0x3f7cce48	0.9875226
4	0x3f7e169d	0.99253255
5	0x3f7dc188	0.9912343
6	0x3f7f7d68	0.9980073
7	0x3f721cbc	0.94575095
8	0x3f7edf26	0.9955925
9	0x3f74769d	0.9549349
10	0x3f88da99	1.0691711
11	0x3f81eb51	1.0149938
12	0x3f7cdcdd	0.9877451
13	0x3f8f8b0a	1.1214306
14	0x3f7e7f0c	0.9941261
15	0x3f7a2e2a	0.9772669
16	0x3f859049	1.0434657
17	0x3f7e2c46	0.99286306
18	0x3f7e429d	0.99320394
19	0x3f80f0a6	1.007344
20	0x3f7f7440	0.9978676
21	0x3f84a371	1.0362378
22	0x3f80cf7a	1.0063317
23	0x3f7f030b	0.9961402
24	0x3f7cbaf3	0.9872276
25	0x3f79f996	0.9764646
26	0x3f7f3ef9	0.99705464
27	0x3f82271d	1.0168186
28	0x3f778255	0.96683246
29	0x3f8af4a6	1.0855911
30	0x3f719a16	0.9437574
31	0x3f7ea488	0.99469805

model_8/tf.math.multiply_22/Mul/y f4 [1, 32]
0	0x3f89cefa	1.0766289
1	0x3f892dcf	1.0717105
2	0x3f82b28a	1.0210736
3	0x3f9924d7	1.1964368
4	0x3f8bf623	1.093449
5	0x3f9f852a	1.2462513
6	0x3f81199b	1.0085939
7	0x3f85a882	1.044205
8	0x3f820e18	1.0160551
9	0x3f924805	1.1428229
10	0x3f86637a	1.0499108
11	0x3fa0c7b9	1.256095
12	0x3fad3661	1.353222
13	0x3f9e0b66	1.2347229
14	0x3f80d968	1.0066347
15	0x3f7cbbbe	0.9872397
16	0x3f86c19c	1.0527835
17	0x3f812970	1.0090771
18	0x3f7e4807	0.99328655
19	0x3f880b00	1.0628357
20	0x3f84142e	1.0318658
21	0x3fa99813	1.3249534
22	0x3f8323e2	1.0245326
23	0x3fa2efb1	1.2729398
24	0x3f7e96bc	0.9944875
25	0x3f8c1f77	1.0947102
26	0x3fa3b95d	1.2790943
27	0x3f8f9364	1.1216855
28	0x3f693345	0.91093856
29	0x3f8e8f83	1.1137546
30	0x3faecb2f	1.3655757
31	0x3f923204	1.1421514
